data.pth (torch, 15722 bytes, 6 tensors)

l1.weight f4 [8, 249]
00000000: 8e7d 3dbe f4c1 da3e 22a1 6c3e 0fcc b73e
00000010: 6c6a 103f 60cf b6be 2cf2 33be 29fe db3e
00000020: 2ef3 473f 0af7 89be e4b1 a7be f16b 533d
00000030: cf15 39be 090c 7b3e ac8e 82bc 90c1 073e
00000040: 9391 f63e 3687 13bf 5738 8e3e c8d7 b13e
00000050: 1231 033f c70a c2be ad94 3d3e ef98 c03e
00000060: 9b31 87be f2bd 16bf b859 f03e 7c64 203d
00000070: caa7 b7be 4a97 d9be 8c46 b43e bfba e9bd
00000080: 6919 b9be 02b7 cbbe 0bf0 f0be 0d85 dc3e
00000090: 233a 1d3e 9fa4 7d3e a402 763f a4c1 e43b
000000a0: c957 bfbe 8011 ddbd 4cb7 333f ffbc b0be
000000b0: 0bc9 a4be 911e 033d a49b a73e 04f2 2b3e
000000c0: 5e9d 8f3e 70a1 593f ba0c 9e3d cdf0 883f
000000d0: 928d a0be 3149 053f 3dfb aebe b21a 98be
000000e0: fa95 2c3e e9a3 873e c2f5 4c3e 1557 c33e
000000f0: 46b1 5c3e 3374 b0be db9d 55be 829f 6a3e
00000100: 4154 523e 11dc 79be c2a9 7abe 1481 9abe
00000110: 10b1 54be e2b8 243f 3e07 0cbf 521e 84bd
00000120: e919 00bf ccbc 843e 301f a03d 5f8d cd3e
00000130: 2190 20be 5039 3d3f a40b 973e a5c4 f1be
00000140: c156 ae3e 8fee c33e 50e0 2fbe 35a9 84be
00000150: 8704 733e 4cc8 ce3e 7242 183f 03a9 97be
00000160: 2ea8 febe eb89 213e 932e 2ebe 3b8a 6b3f
00000170: b35c 3bbe b9e2 8fbe 853c 17be f334 29bb
00000180: 0c7f e5be ebc2 dfbe 8656 efbe 438a e2be
00000190: 0732 ad3e d5cc d83e 2d67 0e3e fcdd 53be
000001a0: 0565 a13d 24a4 993d 1cb3 953e ad80 20be
000001b0: 68a8 cf3e 0bc0 133f 11f7 6bbf 0bc1 f1be
000001c0: 35cb 963e b7c0 e6be c7e7 2bbf ea8b 7b3e
000001d0: 20f4 4ebe cbee 213f e2c6 c8be 6e63 013e
000001e0: c899 4f3f e2d4 d43e 7f25 013f 9062 09be
000001f0: f23b 3a3f c339 ca3e b03c a0be a99f 403e
00000200: cfae dabe b24c fb3e ae1f 173f 8eb9 b7be
00000210: 667d f8be 4c2d cf3e cd91 1b3d 8cfc 093f
00000220: 2e95 b3bc cede 16be 1b5f 4abe 9a6f a7be
00000230: c880 5f3f 66dd 27be e68e 8ebe 71a2 99be
00000240: c457 193e 75a0 05be 51f4 f63e 5ca5 fdbe
00000250: be0e 0e3e 1e5f 8f3e 8a78 a53e 58b5 a1bd
00000260: 41ff 873e d559 17bf 91eb ecbe 9729 c83e
00000270: 83aa bf3e a85e 4ebd 668e 9bbe 5f3a 5ebe
00000280: 3c99 a6be 4136 0bbf afdf c2be fd46 4e3e
00000290: f8e8 bf3e b6f3 61bf 51f0 2b3e 6c50 ebbe
000002a0: 131d f13e 7255 f5be 199a 823e ecc6 413f
000002b0: 968e 80be b9ec dabe 7f09 21bd bc0a c93e
000002c0: d90c a0be 5145 e23e 2ccb ed3e b936 203e
000002d0: 35ca 65be 667f b23e 5896 d23e a217 8dbd
000002e0: 6b09 b6be 1142 e83e 29d1 e33e 30c7 97bc
000002f0: 6ec1 8bbe b5b4 033f 8832 633c 599a 4cbf
00000300: a3da 833e 50e6 203d 91b9 e3be b4be 523e
00000310: 9e67 d1bd 6c92 e6be 2ef9 183f b91f 12bf
00000320: fb44 11bd 7193 c4be 0918 ca3e b897 b6be
00000330: 7c1b 8f3e c28d 933e fa60 56be 06a3 b83e
00000340: dc43 99be 0aa4 61bd b775 e8bc f1e2 873e
00000350: 912b eebb 9d7d 803d 3300 ce3e 2a75 3fbe
00000360: 36a7 0f3f 56b2 00bf 41ec c6be 104b 263f
00000370: 7cae 3dbe 2eac 883f 96c9 85be 85cd d3be
00000380: a646 03bf bb80 92be 89c3 46be deaa 8d3e
00000390: b5cc d13e 852f 9abe 1f97 17bf 6dcf 7abe
000003a0: fb54 c2be fac7 883e 0dff a93e 58ae bc3e
000003b0: c9d1 f73e 3646 453f 1ec5 003f b424 b73d
000003c0: 8c3f 243e fc75 be3e ba8c 293f 623d d5bd
000003d0: 7668 fa3e abca 833f 912a 7d3e ccdf 303d
000003e0: f84c 07bf 07c6 31be b628 213f fa88 2b3e
000003f0: c9b1 09bf 946e 003e d28d 90be 6f29 603e
-0.18504927 0.427261 0.23108342 0.35897872 0.56412387 -0.3570509 -0.1757285 0.42967346
0.7810544 -0.26946288 -0.32752907 0.051616613 -0.18074726 0.2451631 -0.015937172 0.13257432
0.4815794 -0.5762819 0.2777736 0.3473494 0.5124675 -0.37898847 0.18513747 0.3761668
-0.26405033 -0.58883584 0.4694345 0.03915833 -0.358702 -0.42498237 0.35210073 -0.11412572
-0.361522 -0.3978806 -0.47058138 0.4307026 0.15354209 0.24769829 0.9609778 0.0069810916
-0.37371662 -0.107943535 0.70201564 -0.34519193 -0.32184634 0.032011572 0.32735932 0.1679154
0.2804975 0.8501196 0.07717271 1.0698487 -0.3135801 0.52064806 -0.34176055 -0.29707867
0.16854087 0.2649224 0.20015624 0.38152376 0.21552 -0.34463653 -0.20860998 0.2291241
0.20539953 -0.24400355 -0.2447882 -0.30176604 -0.20770669 0.6434461 -0.5469855 -0.06451096
-0.50039536 0.2592529 0.078184485 0.4014692 -0.15679981 0.73915577 0.2950107 -0.4722034
0.34050563 0.38267943 -0.17175412 -0.25910345 0.23732196 0.4038719 0.5947639 -0.29621133
-0.49737686 0.15775268 -0.17009954 0.920078 -0.1829708 -0.28102663 -0.1476918 -0.0025818914
-0.44823492 -0.43703398 -0.467457 -0.4424611 0.3382723 0.42343774 0.13906546 -0.20690149
0.07880596 0.075020105 0.29238212 -0.15674086 0.4055817 0.5771491 -0.9217387 -0.47217593
0.2945191 -0.45068905 -0.6715054 0.24565092 -0.20210314 0.63254994 -0.39214236 0.12635586
0.81094027 0.41568667 0.5044784 -0.13416505 0.7274772 0.39497194 -0.312963 0.18810906
-0.42711493 0.4908195 0.59032714 -0.35883754 -0.4853317 0.40464246 0.037980843 0.5390098
-0.02192172 -0.1473343 -0.19762842 -0.32702333 0.8730588 -0.1639305 -0.27843398 -0.30006745
0.14974886 -0.13049491 0.48233274 -0.49540222 0.13872811 0.28002256 0.32318527 -0.07895917
0.2656193 -0.5912145 -0.46273473 0.3909423 0.37434778 -0.05038324 -0.3038208 -0.21701954
-0.32538784 -0.5437966 -0.38061282 0.20144267 0.3748243 -0.882625 0.16790892 -0.45959795
0.47092494 -0.47916752 0.25508192 0.75694156 -0.25108784 -0.4275873 -0.039315697 0.39266002
-0.31259802 0.4419351 0.4644407 0.15645875 -0.22440417 0.34862822 0.41130328 -0.06889273
-0.3555406 0.45362905 0.44495514 -0.018527597 -0.27296013 0.5144761 0.013867028 -0.79923016
0.25752744 0.039282143 -0.44477513 0.2058056 -0.102248415 -0.45033586 0.5975522 -0.57079655
-0.035466176 -0.3839374 0.39471462 -0.35662627 0.27950656 0.2881909 -0.20935431 0.36061877
-0.29934585 -0.05508808 -0.028376443 0.2654033 -0.007268377 0.06273959 0.40234527 -0.18697038
0.5611452 -0.5027212 -0.38852122 0.64958286 -0.18523592 1.0677545 -0.2613036 -0.41367736
-0.51279676 -0.2861384 -0.19410528 0.27669424 0.40976492 -0.3011438 -0.5921497 -0.24493189
-0.3795546 0.2671507 0.332024 0.36851764 0.4840224 0.7706026 0.50300777 0.089425474
0.16039866 0.3719939 0.66230357 -0.104120985 0.48907822 1.0296224 0.24723269 0.04318218
-0.5285182 -0.17360698 0.62952745 0.16751471 -0.53786904 0.12542182 -0.282332 0.21890806

l1.bias f4 [8]
00000000: d118 ef3e e2a3 d63e c0bf 4b3f 648e 553f
00000010: 00d5 793f a20b d53f 2702 443f 7bd0 e73e
0.4669862 0.41921908 0.7958946 0.83420396 0.9759064 1.6644175 0.76565784 0.45276245

l2.weight f4 [8, 8]
00000000: 61ba 913f b9d6 9e3f eaf8 a83f e705 ac3f
00000010: c5d8 76be 662a a9be 0023 43bf b26a b33f
00000020: fec7 af3f 6c13 a93e 179e 363e ac49 9d3e
00000030: a24d bc3f d241 283f f3f6 d8bf 6ce5 7abf
00000040: 4696 6c3f bd71 57be 7ded 3abf b490 f9bd
00000050: d4f6 0240 f491 18bf ef78 de3f ccd7 ed3f
00000060: 4f64 bfbf 804f 6ebf 2e6d 423f 128b ea3f
00000070: 4228 373f 84e5 0b3f 4141 cb3f e72a 623b
00000080: c084 29bf 5d5e fa3f 2f2e 6f3f 2080 26bf
00000090: 7175 0a3f cdfe 4c3f 2007 be3f 93c9 92bf
000000a0: 9f34 e03d 6bf7 d03f 6089 f03f 8d6e 15bf
000000b0: a0cd 19bf 28f8 5a3f 731d e53e 82ea 9e3f
000000c0: d612 9d3f 41a1 2cbe bc21 5cbd f05d 1640
000000d0: d1ec 39bf 8747 643f 8abf aa3f 1118 81bf
000000e0: a696 30be 05aa 73bf aa9c 9abe 9f97 5abf
000000f0: 7f5e 413f 90a9 1140 40e3 0ebf 8240 5c3f
1.1385003 1.2409278 1.3200963 1.3439301 -0.24106129 -0.3304016 -0.7622528 1.4016936
1.3732908 0.3302263 0.17833744 0.3072027 1.4711192 0.65725434 -1.6950363 -0.9800632
0.924168 -0.21039481 -0.7301863 -0.12185803 2.0463152 -0.59597707 1.7380656 1.8581481
-1.4952487 -0.9309006 0.75947845 1.8323691 0.71545804 0.5464709 1.5879289 0.0034510435
-0.66218185 1.9560047 0.93429846 -0.65039253 0.5408545 0.80076295 1.4845924 -1.1467766
0.10947537 1.6325506 1.8791924 -0.5837181 -0.60079384 0.85534906 0.4474903 1.2415316
1.2271373 -0.16858388 -0.05374311 2.3494835 -0.7262698 0.8917164 1.3339703 -1.008547
-0.17244968 -0.95181304 -0.3019765 -0.85387605 0.75534815 2.2759743 -0.55815506 0.8603593

l2.bias f4 [8]
00000000: 378e 50bf 6794 813f 7820 583d 2bd1 573f
00000010: 32b7 373f 3ce4 313f f1fa f03e 1cf2 933f
-0.81467 1.0123414 0.05276534 0.8430354 0.7176391 0.69488883 0.47066453 1.1558261

l3.weight f4 [29, 8]
00000000: fcac a13e 596e d9bf ba00 073e c6f6 14bf
00000010: d616 dfbf e466 873e be03 9b3e 316e b4bd
00000020: 60db bcbd 3936 253f 8f68 97be 0d13 a0be
00000030: 9051 d8bf 747e 75bf c377 043f 7e18 95be
00000040: 01ea 7e3e a40a d4be 741f b7bf fa21 ae3c
00000050: ff89 c5bd 6141 0c3f 6c59 8a3d ee90 4fbf
00000060: 0928 ac3d 05fc 603e f2c3 c43e fa6e bdbf
00000070: 61fd 2ebf 0974 80be cc6e 8abf a75b ab3e
00000080: 8968 fa3e 365c 8c3e cca5 92bf d36a 05c0
00000090: 5ee3 2d3e b025 093e 1fd3 03bf c735 413d
000000a0: 397e a6be f557 97be 6d7a 343e 6e45 6fbe
000000b0: aa4b e63e 55db 3ebf df4e 143e 4118 13bf
000000c0: f4cb ad3e ebe3 9ebf 86fd b43e 2a19 8ebf
000000d0: 46ef 6e3d 34ef 003f 49d8 2ebf 80c5 b0bf
000000e0: 4610 2abd 9be7 1a3f 1fd7 dc3e bf09 acbf
000000f0: 6361 d23e 6dc9 d3be 566c bbbf 5551 c4bf
00000100: 1ca8 aa3e 8076 c5bb 2202 9f3e 749f d1bd
00000110: 70d1 d5bf 8b19 7f3d 34fb 0ebf 5878 bfbf
00000120: 24b9 0bbf 2a3d 01be c9a4 38c0 2b71 3fbf
00000130: 2f9a 353f d326 2c3f a6eb cabd 732d 33be
00000140: fca2 79bf 91ae 113f 084b 573e 2cc7 173f
00000150: 389b c43e f7b3 3ac0 6925 1abf 5aa9 e23e
00000160: 31ca 323d 85a8 013f e345 04bf acf0 68bf
00000170: 53f9 c7be 28e8 1c3e 6bec c93e 8318 0bc0
00000180: d343 acbd adcd 8e3c e2d2 673e 22cd 1f3f
00000190: 122e ee3e 6547 cfbe 2b1c fdbf 1518 89bf
000001a0: 5f26 c2bf 0486 d4bf 23d2 223f 1bf4 ae3e
000001b0: c4f6 b13e 6a1e 01c0 ffed 9e3e 12ae 8e3e
000001c0: 0bbc e8bf 7f36 413f ca7d a0bf 0918 bdbf
000001d0: 631d 62be 746a d0bd ae99 fb3e fc96 723f
000001e0: 820e 22be 0949 0d3f 1dba 42c0 c818 d83e
000001f0: 6b0f 92be ee80 8cbe 0b96 3d3f 6e31 a2bd
00000200: 1fa8 2cc0 8fd4 b8be 60c0 82bf 4174 663f
00000210: dbb3 b43e 232d 0fbf 585c 113f a421 ff3e
00000220: 04e3 4bbf 9c34 ec3e 1c1d 6abf 8e78 e93d
00000230: 0dde d53e d7cd 94bc ede5 cebf 53c7 053f
00000240: 0df9 22be ca83 4b3e 1743 153f cced 57bd
00000250: f662 7dbf f906 cabf 5707 313e 90be dbbf
00000260: db37 9dbe 88c4 d0be a6a4 c9be d6ac 633f
00000270: 0f13 a8be a7dd 0dc0 bc2a 2a3f a619 2bbf
00000280: 96a4 b53e b9dd c4bf 0525 90be 75f1 9b3e
00000290: 4b1b 3dbd d247 c4bd 3607 5c3e 7817 f4bf
000002a0: ff98 23c0 8093 e33d 6cec 1f3f 32e5 033f
000002b0: 22b6 8abd a4b5 0ebf ea23 26c0 1652 1b3f
000002c0: 80e3 01bd 705c cabf f4b4 153f e65b 1b3f
000002d0: fa98 ebbe e6af 46bf 717d b1be a8fb 48bf
000002e0: 2aec f43d da96 803d f11c f73e d877 333e
000002f0: 111a bebf bae5 aabf 3076 13c0 e3e1 293f
00000300: 77a9 82be 50b4 6dbd 316d 79be 542d 943e
00000310: 337a febe 30d9 18bf ee3d 07bf 6fa7 143f
00000320: 2052 353d 5a04 e3bf 1f12 0dc0 741d b73e
00000330: 4f01 b53e 8901 4e3e 1764 133f 5a32 81bf
00000340: 6a60 93be 117f d0bf fd71 98be bb66 6f3e
00000350: 35e7 6fbf 132c e33e b301 e7bf d679 443f
00000360: a2a6 89be 935b 633f 18b8 283f 5fa3 48bf
00000370: 731d 9bbf 776a 09c0 f68c 44bf 853e 813d
00000380: 595b 89bf ec06 f3bf 70eb 84be c615 cd3e
00000390: fae1 543f 1753 a83e 2356 fdbe 729a bdbd
0.3157729 -1.69868 0.13183871 -0.58189046 -1.7428844 0.26445687 0.30276293 -0.0881008
-0.0922153 0.6453586 -0.2957196 -0.31264535 -1.6899891 -0.9589608 0.5174524 -0.2912025
0.24893953 -0.41414368 -1.4306474 0.021256436 -0.09645461 0.5478726 0.06755337 -0.8108052
0.084060736 0.21971138 0.38430744 -1.4799492 -0.68355376 -0.25088528 -1.0815063 0.33468363
0.4890788 0.274141 -1.1456847 -2.084645 0.16981265 0.13393283 -0.5149402 0.047170427
-0.32518175 -0.29559293 0.17624827 -0.23366329 0.44979602 -0.74553424 0.14483212 -0.57458884
0.33944666 -1.2413305 0.35349673 -1.110143 0.058333658 0.50364995 -0.68298775 -1.3810272
-0.041519426 0.6050965 0.43132874 -1.3440474 0.41089925 -0.41364613 -1.4642437 -1.533732
0.33331382 -0.006026089 0.31056315 -0.102354914 -1.670454 0.06228022 -0.55852056 -1.4958601
-0.5457938 -0.12620988 -2.8850577 -0.74782056 0.7093839 0.6724674 -0.099082276 -0.17497806
-0.9751432 0.5690699 0.21024716 0.5928829 0.38399673 -2.9172342 -0.60213333 0.4426983
0.043649856 0.50647765 -0.5166914 -0.90992236 -0.39057407 0.15322936 0.39438185 -2.173371
-0.08411374 0.017432058 0.22639039 0.6242238 0.46519524 -0.40484157 -1.9774221 -1.0710474
-1.516796 -1.6603398 0.63601893 0.34170613 0.3475858 -2.0174813 0.31040952 0.2786718
-1.8182386 0.7547378 -1.2538388 -1.477296 -0.22081523 -0.10176554 0.49140686 0.94761634
-0.15825847 0.5518957 -3.0426095 0.42206407 -0.28527388 -0.27442116 0.7405707 -0.07919584
-2.6977613 -0.3609967 -1.0214958 0.9002114 0.3529347 -0.5592825 0.5678153 0.49830353
-0.79643273 0.46133888 -0.9145067 0.11399947 0.41770974 -0.018164558 -1.6163918 0.5225727
-0.15915318 0.19874492 0.58305496 -0.052717015 -0.9897913 -1.5783378 0.17287956 -1.716753
-0.30706677 -0.4077494 -0.3938343 0.889356 -0.3282704 -2.2166536 0.6647146 -0.6683601
0.35477132 -1.5380164 -0.28153244 0.30457655 -0.046168607 -0.09584011 0.21487126 -1.9069662
-2.5562131 0.11112118 0.62470126 0.515216 -0.0677302 -0.5574591 -2.595942 0.6067213
-0.0317111 -1.580946 0.5847924 0.606871 -0.4601515 -0.7761215 -0.34666017 -0.78508997
0.11959107 0.06278773 0.48264268 0.17526186 -1.4851705 -1.3351357 -2.3040886 0.663603
-0.25519916 -0.058033288 -0.2435806 0.28940833 -0.49702606 -0.597064 -0.5282887 0.58067983
0.044267774 -1.7735703 -2.204231 0.35764658 0.3535256 0.20117773 0.575746 -1.0093491
-0.28784496 -1.6288778 -0.29774466 0.23379032 -0.9371217 0.44369563 -1.8047394 0.76748407
-0.26884943 0.88811606 0.65905905 -0.78374285 -1.2118362 -2.147123 -0.7677759 0.06310753
-1.0731002 -1.8986487 -0.25960875 0.40055674 0.8315731 0.32875893 -0.4947978 -0.09257974

l3.bias f4 [29]
00000000: ebd9 5dbc 82ef aa3a 27b2 c6be 89a9 4cbe
00000010: 176e 80be 84f2 663c a977 9b3b e705 12be
00000020: 8a52 a9be a735 cd3e d113 85be 1391 bfbe
00000030: 253e 033e 9d8f 19bf a395 823e d60e 49bc
00000040: 01b4 243f e205 833e 2a00 03be 5852 bd3e
00000050: bf0a 0d3e 22e6 a23e 5d81 293e 16a2 21be
00000060: 6054 b8be 8263 01be c013 803e 035a 723d
00000070: 3e01 18be
-0.013540725 0.001304135 -0.38807794 -0.19986548 -0.25083992 0.014095906 0.004744489 -0.14260064
-0.33070785 0.40079996 -0.2599168 -0.3741537 0.12816675 -0.5998476 0.2550479 -0.012271604
0.64337164 0.25590426 -0.12793031 0.36976886 0.1377363 0.31816202 0.16553254 -0.15784487
-0.36001873 -0.12635615 0.25015068 0.059167873 -0.14844224
